data.pth (torch, 4202 bytes, 6 tensors)

l1.weight f4 [8, 28]
00000000: 8b67 433f 128e 853e 0939 5fbe 532c f43d
00000010: d34b 15be 812b 313f c62e 313f 83f2 10bd
00000020: 2f1a 283f f495 8bbe a3e9 9dbe 59b4 9dbe
00000030: 364f 103f 1451 9ebe b5d9 92be ae93 a9be
00000040: 2d3d d23e 807a 4a3e 5c70 aebe caca c63e
00000050: ece3 87be 7b13 2a3f 7613 e63e 69ad bfbe
00000060: 88b9 473f 8d08 023f cbe8 9a3e 24b6 0f3f
00000070: 91fb d2bd 0971 8e3c 96dc 263e 4560 043f
00000080: f66c b73e a0f5 10bf c14e 2dbf c817 0b3f
00000090: 3b87 a0be de6d 7d3e 1414 fd3e 137c ef3e
000000a0: c84b 91be 9437 2d3f 22f6 233f e5c7 aa3e
000000b0: b52c b53d 5448 7fbe 8432 863e c05d 1fbd
000000c0: 14fa 363d 2f31 46bf 2d87 81be d667 a73e
000000d0: c566 fbbd 4426 0a3f bd5e c53e d6ac efbe
000000e0: d8ac dc3e ec99 0e3e f02c a83e 8505 0abf
000000f0: 2978 07bf 0080 033f f803 e8bd bad7 a43e
00000100: 288a 9b3e f587 0a3f a88a 07bf 40a8 253f
00000110: 611b da3e a811 1c3f 1320 2f3f 182b 443f
00000120: 9e64 763e 694b 46be 737f debe f8fb 123e
00000130: 255c c8be 89a1 1b3f 6fdc d93e 8ebf 143f
00000140: 89f3 94be e04a 95be 094a 9a3e 8d1f 92be
00000150: 5edc 8fbe f271 61bd 411c 9a3e b07e 92be
00000160: 809b 6a3f b9af c4be c7b6 08bf 6fb9 ee3e
00000170: 6ed2 c0be 9245 013f f91b 4e3f 838d f33e
00000180: afe9 93be de9e 9e3e 3ea0 ec3e bf60 3a3e
00000190: a92e 3a3f 99e7 3b3f a383 283f f7d4 3fbe
000001a0: 8966 3b3f 5be7 2ebf d8e5 d6bd d4de d83e
000001b0: f5f6 c7bc 6e3c 88be 1957 d03d f396 babd
000001c0: dc96 46be d5d8 d33d d769 c73e 4bf5 4d3f
000001d0: 86a4 12bf 4dd3 d13e e5db 56be 13c1 343e
000001e0: 8de5 c43e bcbc f73e f7a6 12bf 3352 fd3e
000001f0: de7f 1fbe 7078 163f 327c e53e 4e2a df3e
00000200: 8abb 0b3f a40d f33e 8887 d2be 54bc 8d3d
00000210: 04ac ccbe 5c10 15bf de31 67be 51bf ae3e
00000220: 64c7 563f 3b51 2e3f c680 863e 2e02 9fba
00000230: 4963 603e f7d5 a73d 8c59 003f 78a8 63be
00000240: 9774 b9be e363 76be 9d9e 8ebc ef68 df3e
00000250: ec01 59ba 8d50 e43e 40f0 b8be 2446 283f
00000260: 4caa 873e 9fce c13e b8b4 063f c3d4 2d3f
00000270: 1698 8f3e 32bf 49be 211e 4d3d 9035 223e
00000280: 172f 4ebd 0186 523f 590e ae3e a11b ef3e
00000290: 5687 e2be 85b9 e0be 2277 47ba 2884 9dbe
000002a0: 50e2 c63e 8516 a33e 2e18 e9bc e812 973e
000002b0: cda0 d5bd dc72 213f 8991 f43e 636e 9a3e
000002c0: d847 233f af3a b03e 8cf6 51bd 6e11 883e
000002d0: 6e2c b13e 3b00 023f 2afa cd3e 1db6 f63e
000002e0: 91be d5be 3ada e4be 3e18 a23d 39c0 b23e
000002f0: 9846 623d 4249 323f cac7 b93d b9ef 30be
00000300: 0732 ab3d aadc 26be e7d5 7a3e 3e04 943e
00000310: 7d29 f2bd da39 e4bd b0f0 cdbe b75d c53e
00000320: 3acf dc3e 5288 d73e 04aa 113f b066 0cbe
00000330: 6042 b13e 96aa 95be 9b69 143f d998 e4be
00000340: 82dc a8bd 739b e4be ccad e4be a51e 37bf
00000350: 99e7 da3e b0cb a43e 3926 fc3e ce4e fc3d
00000360: 1300 f73e 7a91 7abd 2d09 33be b6cf c6be
00000370: 5a54 3a3f 51a4 ab3e 4664 ab3e ef56 0c3f
0.7632987 0.26084954 -0.21799101 0.11922517 -0.14579706 0.69207007 0.69211996 -0.035387527
0.65664953 -0.27262843 -0.30842313 -0.30801657 0.56370866 -0.30921233 -0.28681722 -0.33120483
0.41062298 0.19773293 -0.34070098 0.3882659 -0.26541078 0.66435975 0.44936723 -0.3743699
0.78017473 0.507943 0.30255732 0.561373 -0.10301889 0.017387884 0.16295084 0.51709396
0.35825318 -0.56624794 -0.67698294 0.5433316 -0.31353173 0.24748942 0.4942938 0.4677435
-0.2837813 0.6766293 0.64047444 0.33355632 0.08846418 -0.24929935 0.26210415 -0.038907766
0.044672087 -0.774188 -0.25298443 0.32696408 -0.12275461 0.5396464 0.38548842 -0.4681155
0.4310062 0.13925904 0.32846785 -0.5391467 -0.52917725 0.5136719 -0.11328882 0.32195836
0.30378842 0.54113704 -0.5294595 0.64709854 0.42599013 0.6096444 0.68408316 0.76628256
0.2406182 -0.19364704 -0.4345661 0.14353931 -0.391328 0.6079336 0.4255099 0.5810479
-0.29092053 -0.29158688 0.3013461 -0.28539696 -0.28097814 -0.055040307 0.3009968 -0.2861228
0.91643524 -0.38415316 -0.53403896 0.4662585 -0.37660545 0.5049678 0.8051143 0.47568902
-0.28889224 0.3098058 0.46216005 0.18200968 0.7272745 0.73400265 0.6582586 -0.18733583
0.7320333 -0.6832177 -0.10493058 0.42357504 -0.02440975 -0.26608604 0.101728626 -0.091108225
-0.19393486 0.10344092 0.38947937 0.8045241 -0.5728229 0.40981522 -0.2098232 0.17651777
0.38456383 0.4838618 -0.5728602 0.49476776 -0.15576121 0.58777523 0.44821316 0.43586963
0.54583037 0.47471344 -0.41119027 0.06920686 -0.39974988 -0.5822809 -0.22577617 0.34130338
0.83897996 0.680927 0.2627012 -0.0012131387 0.21912874 0.081951074 0.5013664 -0.22232234
-0.36221763 -0.24061541 -0.017409617 0.43634745 -0.00082781794 0.44592705 -0.36120796 0.65732026
0.26497114 0.37852952 0.52619505 0.67902774 0.2804572 -0.19701841 0.05007756 0.15840745
-0.050337877 0.82235724 0.3399532 0.46700767 -0.44243878 -0.4389154 -0.0007609 -0.3076489
0.38844538 0.3185312 -0.028453913 0.29506612 -0.10431061 0.63065886 0.47767285 0.30162343
0.637815 0.34419772 -0.051260516 0.26575798 0.3460421 0.507816 0.40229923 0.48185816
-0.41746953 -0.44697744 0.0791478 0.3491228 0.055243105 0.6964303 0.0907131 -0.17278947
0.08359151 -0.16295114 0.2449566 0.28909487 -0.118243195 -0.11143847 -0.40222692 0.3854806
0.4312685 0.42096192 0.5690005 -0.13711047 0.34620953 -0.2923171 0.5797364 -0.44647864
-0.082451835 -0.44649848 -0.44663846 -0.71531135 0.4275482 0.3218665 0.49247912 0.12319718
0.48242244 -0.061173894 -0.17483969 -0.38830346 0.7278496 0.335238 0.3347494 0.5482015

l1.bias f4 [8]
00000000: 339b 9d3e c144 403f 716e 073f 6c97 6f3f
00000010: 0cae 123f 8d5d 2a3f 85e4 fb3e bd99 e43e
0.3078247 0.7510491 0.52902895 0.93590426 0.57296824 0.66549 0.49197784 0.44648543

l2.weight f4 [8, 8]
00000000: 9cf6 68be 508e 2b3d c26d 433c b6eb 82bc
00000010: 7e8e 9abe 7b3d 06be 08d8 853e 2286 00be
00000020: 1d49 d4be e899 9d3f eac7 d6be 4e0c 8f3f
00000030: a0de d93e 4e1d f83d 3568 47bc a000 e9bd
00000040: 67e3 773f 469b 31bf 6331 1c3f 7083 31bf
00000050: d501 41bf 6523 1f3f 82ba 543f d7c6 9f3e
00000060: c1d2 6b3f 2e1e 043e 884c 70be 6aac c73d
00000070: 037b 543f c14e 1abf 565c 113f 4eee 953f
00000080: 5b4f 6c3e c6ad 243f 6896 883f 0512 23be
00000090: 09eb 3c3f 8197 013f b4e0 2e3f 76da 35bf
000000a0: c138 c2be dd0e d93d 9ea3 7d3f 6fdb 53bd
000000b0: d4f9 d23e b774 513f beb7 103f eb1c 44bf
000000c0: 7552 afbe 1941 4f3e 2848 0e3f 8a62 623f
000000d0: ff25 3ebf bb74 673f 2918 363f 9d4d c4bd
000000e0: 3d75 8c3e b4a4 3bbf 78cb b93c 0721 103f
000000f0: 6005 9ebd 640e 13bc a0ba 31bf 6db2 af3e
-0.22750324 0.041883767 0.011928024 -0.015981536 -0.30186838 -0.1310939 0.2614138 -0.12551168
-0.4146203 1.2312593 -0.41949397 1.117563 0.42552662 0.121149644 -0.012170841 -0.11377072
0.96831363 -0.69377553 0.6101286 -0.6934118 -0.7539342 0.6216338 0.8309709 0.3120639
0.9211846 0.12902138 -0.23466694 0.09749682 0.830002 -0.6027642 0.5678152 1.171335
0.23077147 0.6432766 1.06709 -0.15924843 0.73796135 0.506218 0.6831162 -0.7103647
-0.37933925 0.10598538 0.99077785 -0.05172294 0.4120623 0.8181872 0.5653037 -0.76606625
-0.34242597 0.20239677 0.5557885 0.8843161 -0.7427673 0.9041249 0.71130615 -0.09585116
0.27433196 -0.7329819 0.02268003 0.56300396 -0.07715869 -0.008975599 -0.6942539 0.34315816

l2.bias f4 [8]
00000000: 36a9 52be c48e fb3e 0eec ea3e d875 363e
00000010: bcd3 80be d28e 7a3e f61e 4c3f adbe 9bbe
-0.20572361 0.4913236 0.4588322 0.17818391 -0.2516154 0.24468544 0.7973474 -0.30418912

l3.weight f4 [5, 8]
00000000: b034 20be c5b3 b1bf 79cd d63e aea3 383f
00000010: 9209 e4be 3029 1fbe 4897 0abf 9e33 57bf
00000020: e250 44bd 5219 6c3f 69cc b6be 5b30 8abe
00000030: 3425 c4bf 9aae f5be 34f6 1b3f 2f62 bfbe
00000040: 912d 153e 41d2 ef3e 0d86 4ebf c859 97bf
00000050: 9131 8e3f 71dd 483f f424 95bd ae83 bcbe
00000060: 9c2d 92bd 4a54 91bf 95f3 8d3f 5eef 71bf
00000070: f4c3 b53e bc0c 8f3e 4d46 083f 4401 abbe
00000080: b868 81be d55d bf3e ff72 a9bf 2669 0c3f
00000090: ad38 323e 25e3 04bf 6c27 aabf bd19 4f3f
-0.15645099 -1.3882986 0.41953638 0.72124755 -0.44538552 -0.15543056 -0.54137087 -0.84063137
-0.0479287 0.92226136 -0.35702828 -0.26990017 -1.5323853 -0.47984773 0.6092255 -0.37379596
0.14568163 0.46840099 -0.80673295 -1.1824274 1.1108876 0.7846289 -0.07282439 -0.36819214
-0.071376055 -1.1353848 1.108996 -0.9450587 0.35501063 0.27939403 0.5323227 -0.33399403
-0.25275207 0.37376276 -1.3238219 0.54847944 0.17404433 -0.51909095 -1.3293281 0.8089865

l3.bias f4 [5]
00000000: a0ed e23d be35 673e 01b4 9ebe 0e17 453e
00000010: d13a 863e
0.110804796 0.22579095 -0.30996707 0.19247076 0.26216748
